data/processed/matrix_factorization.pt (torch, 332390 bytes, 2 tensors)

user_factors.weight f4 [610, 8]
00000000: 62bd d73f 5dd2 823f 5999 803f 8656 ad3f
00000010: 4d34 273f 14a1 f13f 7099 6b3f bbe6 a33f
00000020: e7db f83e 4bc4 e03f 66ae ec3f d049 d33f
00000030: 4f00 993f eb36 e43e 9113 753e ef59 533f
00000040: 069d 0240 2409 3240 01fa bfbf 460a 98bf
00000050: d926 81be a665 c4bf 2ed1 5c3f 8cb0 ba3f
00000060: 8def a7be e0de fd3f 6eec b33d 4a96 423e
00000070: 54f4 03bf b3a7 8340 86c7 dc3f e5be 8dbe
00000080: cc54 823e bea1 c73f 01f1 b53f cc75 c63e
00000090: 65c3 a63f fc24 d43f ce2c b43f 2c1b 76be
000000a0: d821 3cbe d726 0440 2c43 673f ea22 9b3f
000000b0: 2c99 803f 5c9b ed3f 6b75 803c 66dd b33f
000000c0: 0173 8bbf 6f8b 0d40 1199 fe3d 5e92 393f
000000d0: ae50 273f b87a 1840 d76f b73f 8154 a73f
000000e0: 1fb0 ea3f 86e1 a13f d4e0 843f aea8 643f
000000f0: ca50 173f 8531 2c3f 616e c13f e22b 2f3f
00000100: 5afa 9b3f ac44 4b3f bf88 543b 42af aabd
00000110: 890e b73f 69e1 a13f 711e db3f 993a c23f
00000120: 4268 483c 845d f63f 8f95 763f 7b09 5b40
00000130: bde4 b63e 6eab edbe 53d8 3d3e 78d4 443e
00000140: 7100 c73e 1e64 a23f e747 523f c778 873f
00000150: ada9 0740 e097 ba3f b1a3 963e ad41 8d3f
00000160: f0e0 503f 97ea 613f 8a8c 603f 842f 4740
00000170: 1942 a83f 3709 0d3f 1fae 243f a459 c23f
00000180: 7558 ed3f a56d e73f a659 193b ecd0 053f
00000190: c6cf d73f 449a ad3e cd19 a53f 881e b23f
000001a0: 8009 ab3e 9726 213e 450a a53f 2e38 1a40
000001b0: 9f9d c73f 5c45 c63e 310a 5f3f 65b2 6c3f
000001c0: d289 713f dbfa a83e 6832 78bf 096d 2c40
000001d0: 911e bb3f bb9f 103e 1d40 1b40 fdf8 333f
000001e0: 017a 943f 3932 913f 142a 683f dff3 033f
000001f0: 352a 873f e609 653f 112c 963f ceeb fc3e
00000200: c999 0d3f 107c 853f e455 543f fb5d a93f
00000210: 7316 683f d884 a63f a671 bb3f 480e ab3f
00000220: 0ab0 a63f 1f6e 813f 3c6e 4c3f 10bb 763f
00000230: 7a05 7b3f d2f0 763f 4f94 a03f cd4f 823f
00000240: a2b4 e43f 0634 ee3f 0b23 8c3f 82c9 aebc
00000250: b5b2 843e 4fe3 8a3f 58a0 3a3f 2c14 44be
00000260: 2ea9 ac3f 8d37 8e3f e57f 9f3e 13a6 a33f
00000270: b8e9 2740 4b2f f03f 9775 0c3f b0fb c2be
00000280: da08 c8be cf4f e83f 03b0 5b3f 31a5 2240
00000290: ab63 c0be 7069 283e e006 953f d785 cc3f
000002a0: 607a 8abf 72ed 1040 cbd0 0fc0 d5b6 0e3e
000002b0: 5113 293f d1c5 1740 0cde 4940 e36e 5c3f
000002c0: 3c41 b33f 8a80 a73f c8ad 403f 5090 223f
000002d0: 0c21 f43e ed1c 853f c8fd 8c3f c538 403f
000002e0: 0305 b13f 949c 293f 1b71 913f 6558 763f
000002f0: 8530 473f 4c95 5f3f 121f 593f 16e5 b23f
00000300: bd54 903f c28f 7c3f 8990 8f3f 2c82 d53f
00000310: abd7 a83f bc19 bf3f 5e01 483f e707 af3f
00000320: b7ce 5b3f 393e 533f e704 4e3f f32d 073f
00000330: af91 8b3f ecb7 153f 5524 8b3f 7445 ce3f
00000340: f85b 7c3f 1cf9 f93f 2f0f 5e3f 0752 1440
00000350: b829 883d ff0c d53f 59cb 1dbd 30ea c83c
00000360: dccf e73f 0a1f 323f d1c5 95be 4350 a33f
00000370: 6ffa 1f3f 06e5 c93e fe54 863f bc09 933f
00000380: ffbd ff3f 34a2 0d3f a856 f53e 3d62 9f3f
00000390: ef3d e53f cb25 693f f123 443f fd40 523f
000003a0: 3222 923e 41b3 a13f 97fc 0440 598e 0440
000003b0: 1a76 0d3f 5cc6 b03f 2d0a a03f 25fd 9f3f
000003c0: bc9d bd3f 3ad9 743f 7a8d 3440 26eb 403f
000003d0: 6c7a 7a3f 68c9 ad3f 0946 13bf 2d1c a03f
000003e0: c679 ff3e e97c d93f 4b54 c43f 9f30 113f
000003f0: 7231 0140 68a4 883f 9826 873f 0cf4 053d
1.685467 1.0220448 1.0046798 1.354203 0.6531418 1.8877282 0.92031 1.2804788
0.48605272 1.7559904 1.8490722 1.6506901 1.1953219 0.4457315 0.23933245 0.825591
2.040834 2.781808 -1.499817 -1.1878135 -0.2522495 -1.5343521 0.8625668 1.4585128
-0.3279995 1.9833641 0.0878533 0.19002643 -0.5154469 4.114221 1.724839 -0.27684703
0.2545532 1.5596235 1.4214174 0.38761747 1.302838 1.6573787 1.4076173 -0.24033803
-0.18372285 2.0648706 0.9033687 1.212003 1.0046744 1.8563037 0.01568099 1.405194
-1.0894471 2.2116354 0.12431539 0.72488964 0.6535748 2.3824902 1.4331006 1.3072664
1.8334998 1.2646949 1.0381112 0.89319885 0.5910765 0.6726306 1.511181 0.68426335
1.2185776 0.7940166 0.003243014 -0.08334209 1.4301311 1.2646915 1.7118665 1.5174133
0.012231888 1.9247289 0.9632196 3.4224536 0.35721388 -0.46419853 0.18539552 0.19221675
0.38867524 1.2686803 0.82140964 1.0583733 2.1197312 1.4577599 0.29421762 1.1035668
0.8159323 0.8824858 0.87714446 3.1122751 1.3145171 0.55092186 0.6432819 1.5183606
1.854262 1.8080336 0.0023399382 0.52271914 1.6860282 0.33906758 1.2898499 1.3915567
0.33405685 0.15737377 1.2893759 2.409679 1.5594977 0.38724792 0.87124926 0.9245971
0.9435092 0.33003888 -0.96951914 2.694155 1.4618703 0.14123432 2.4257882 0.703018
1.1599733 1.1343452 0.90689206 0.5154399 1.0559756 0.8946823 1.1732198 0.49398655
0.5531278 1.0428486 0.8294356 1.3231806 0.90659255 1.3009291 1.4644058 1.3363733
1.3022473 1.0111731 0.79855704 0.96379185 0.9805523 0.9646121 1.254526 1.0180603
1.7867625 1.8609626 1.0948194 -0.02133632 0.25917593 1.0850619 0.72900915 -0.1914832
1.348913 1.1110703 0.31152263 1.2785057 2.62364 1.8764433 0.5486693 -0.38082647
-0.39069253 1.8149356 0.8581545 2.5413325 -0.3757604 0.16446471 1.1642723 1.5978345
-1.0818596 2.2644925 -2.2471187 0.13936932 0.660451 2.3714488 3.1541777 0.861067
1.4004283 1.3086102 0.7526517 0.63501453 0.47681463 1.0399452 1.1014948 0.75086623
1.3829654 0.66254544 1.1362642 0.9622863 0.7780841 0.87337184 0.84813035 1.3976161
1.127586 0.98656857 1.1215984 1.668035 1.3190817 1.4929729 0.78127086 1.3674287
0.85862297 0.8251682 0.8047623 0.5280449 1.0903834 0.5848377 1.0870463 1.6114945
0.98577833 1.9529147 0.8674192 2.3175066 0.06648582 1.6644591 -0.038524006 0.024525732
1.8110309 0.6957861 -0.29252484 1.2758869 0.62491506 0.39432544 1.0494688 1.1487346
1.9979857 0.5532563 0.47917676 1.2451855 1.7909526 0.9107329 0.7661734 0.82130414
0.28541714 1.2632829 2.0779169 2.0711882 0.55258334 1.3810534 1.2503105 1.2499129
1.4813762 0.9564396 2.821135 0.7535881 0.9784305 1.3577089 -0.5752874 1.2508599
0.49897593 1.6991245 1.5338224 0.56714815 2.018643 1.0675173 1.0558653 0.032703444

item_factors.weight f4 [9724, 8]
00000000: 7dc4 263f f439 4a3f dcca 5c3e d085 4b3e
00000010: 8e2f fd3e e147 1e3f 28c8 843e 76c5 f33e
00000020: 2506 9a3e a10f b83e 11f6 983e 623d 4e3f
00000030: 0689 bb3e 588f e53e d0a7 a73e c2ab 973e
00000040: b2d5 183f 95ea 3f3e afe1 033f a03e bd3e
00000050: 390c 1d3f 71f9 b13e 7d1b 0a3f 538d 3e3f
00000060: 802f c93e 2659 cd3e 7abc d93e aaea 8d3e
00000070: f9f9 063f ea45 be3e 59a0 473f c2b6 343f
00000080: 67d5 fc3e cd21 be3e d096 933e d2ae ab3e
00000090: b717 423f 14ae e83e da15 643f 2083 f33e
000000a0: ea01 be3e 140a 973e 02d6 eb3e a97e 5d3f
000000b0: 5ff6 463e ad40 7cbd f70a 833f 584d 9e3e
000000c0: 768e 313f 21e3 dabd 25ab 6c3f 3cc7 023f
000000d0: b798 413f 4a53 163f ab78 163e 7b82 db3d
000000e0: d5c6 c33e e782 183e 7833 463d 589e 1f3f
000000f0: ff66 453f 0758 223f 97c7 ff3e ada9 4d3f
00000100: d9f9 8a3e 0790 9a3e bfbd 073e a87c bc3e
00000110: 3017 543f 2931 113f a60f 2f3f 6695 743e
00000120: c037 963f f687 9a3e bffb 3b3f 6d9b 6d3f
00000130: fec6 863e 1801 063f 5238 74be b384 bcbe
00000140: 4c6d 723f e317 023f cf99 f73e 2337 883e
00000150: 239c bd3d cf88 773e 1f8e 003f c174 f33e
00000160: 5d1a fa3d 8b90 ba3d 0c72 b93d 0167 ed3e
00000170: c509 fe3d ede1 613f 801f 8d3e 0a4e 773f
00000180: 7249 263e 3f11 1d3f 5e8c 593e 2800 c53e
00000190: 3c37 f33e 96b6 ff3e 5c1d 683f 04a8 0e3f
000001a0: 8685 443f fd2b 003e 5be5 c43e a0cf cc3e
000001b0: c85d 243e 67be d73e 15b1 ca3d 8040 2c3f
000001c0: f8b1 043f 0073 f53e 4152 f13d b9c5 cdbd
000001d0: eef4 0b3f 346d 023f bf9e 583f c719 f73e
000001e0: 139e d73e f926 363f e49f f6bb 5841 4c3e
000001f0: 565a 183f a98b 4f3f 38fd 353f f4e3 323f
00000200: 62a4 223f ef2c 863e e0b4 0e3f 1086 003e
00000210: a78d 323f fe5b bd3e b6dc 763f fd71 f13e
00000220: 908a 133f daef f13e 189b 013f d2ca f43e
00000230: 4619 cb3e fd33 5c3c 89b2 943e 6f3a 163f
00000240: 0b53 14bd 7192 203f 1bd0 ca3e b2f9 9f3e
00000250: 5a50 bb3e e3f0 003f 7a86 173e 39ae 953f
00000260: 1f73 ea3d ef28 093f 157a 4f3e 44f4 0e3f
00000270: e8b3 3b3f 36a6 853e 769b 8c3e f3d6 293f
00000280: 5b7f 4c3e c18c d33e c707 ac3e cda0 583f
00000290: 89c2 143f 9c3c 663f 04da e83e bf7e c23e
000002a0: 78fc 443f b3aa a2bd 7833 f53e eea8 8a3f
000002b0: d130 1a3f 00cc 163f 68d9 56be 11b9 8e3e
000002c0: 5fbd f43e d760 6f3f cfef 8c3d d9c6 af3e
000002d0: a150 a2bd e55b 163f 6470 b03e cf0e cd3e
000002e0: 7a04 013f b28e 3b3f 47d8 773f a37c 9b3e
000002f0: 562c 793d 78b9 c2be 5b05 ab3e fc4b 2c3e
00000300: 581f 7c3f 436f 8d3e 0fd4 153f 2f98 863e
00000310: 9432 203f 6725 c33e a2f6 f53e cb0b 983d
00000320: 054b 913e 527d 0d3f 382b 193e 9340 983e
00000330: 38a9 523f 7ae8 383f 0446 853e 0b2d 343f
00000340: 0415 903e fa38 143f 3b85 023e 97d4 e63e
00000350: b091 323f 4b19 e83e 2afa 693e 5636 3a3f
00000360: c545 dc3e 8650 153f 86d9 a13e eedf e93e
00000370: 6940 093f 3c5f 293f 8b5c d2bd 0a00 c43e
00000380: b879 d03e 95a7 f73e 81d1 463e adb4 a33e
00000390: 1250 4b3f 6045 5c3f c617 323f c67b b33e
000003a0: 44b9 c83e 498d 0c3f 633b eb3e dd4d 903e
000003b0: 21ff 4c3f 08e6 d33e 7266 093e 8062 b43e
000003c0: bdc0 a13e b4e7 013f 141a 153f 695b 1e3f
000003d0: 9c8a 9a3d 4e5a e63e 844a 773e 8398 d63e
000003e0: 4aca 093f 391b 893e 09f8 c23e 621c 333f
000003f0: 2c62 0f3e 974a c43e 055e 1b3f b55c 403f
0.6514357 0.7899468 0.2156176 0.19875264 0.49450344 0.6182843 0.25933957 0.47611588
0.30082813 0.35949424 0.29875234 0.8056241 0.36627978 0.44835925 0.32745218 0.29623228
0.59701073 0.1874183 0.5151624 0.36961842 0.61346775 0.3476062 0.53948194 0.74434394
0.39294052 0.40107077 0.4252661 0.27718097 0.5272518 0.37162715 0.77979046 0.70591366
0.49381563 0.37135163 0.28825998 0.33531815 0.75817436 0.4544531 0.8909584 0.47560978
0.37110835 0.29499876 0.46061713 0.86521393 0.1942992 -0.061585117 1.0237721 0.30918384
0.69358003 -0.10687853 0.92448646 0.5108526 0.7562365 0.5872084 0.14694469 0.107182465
0.38237634 0.14893685 0.04838893 0.6235099 0.77110285 0.6341557 0.49956962 0.8033703
0.27143744 0.3018801 0.13255976 0.36813855 0.8284788 0.5671564 0.6838325 0.23885116
1.1735764 0.30181855 0.7343101 0.92815286 0.26323694 0.5234542 -0.2384961 -0.3681999
0.94698024 0.508177 0.48359534 0.26604566 0.09258296 0.24173282 0.5021686 0.47550014
0.1221206 0.09109601 0.09054956 0.46367648 0.12404207 0.8823536 0.27563095 0.96603453
0.16238955 0.6135444 0.21244952 0.38476682 0.47503078 0.4994399 0.906698 0.5572512
0.7676624 0.1251678 0.38456234 0.40002155 0.160514 0.42137453 0.09897057 0.6728592
0.5183406 0.479393 0.11783267 -0.10047478 0.5467061 0.5094788 0.8461723 0.48261854
0.4211279 0.7115322 -0.0075263847 0.19946802 0.5951284 0.8107248 0.71089506 0.6987908
0.6353208 0.26206157 0.55744743 0.12551141 0.69747394 0.36984247 0.9643053 0.4715728
0.57633305 0.47253305 0.5062728 0.4781099 0.3966772 0.013440129 0.29042462 0.5868291
-0.03621201 0.6272345 0.39611897 0.3124519 0.3658474 0.50367564 0.14797392 1.1693794
0.11447739 0.53578085 0.20261414 0.5584147 0.7332139 0.2610337 0.27462357 0.6634361
0.19970457 0.41318324 0.33599684 0.8462036 0.5810934 0.8993623 0.45478833 0.37987325
0.76947737 -0.079427145 0.4789083 1.0832803 0.6023074 0.5890503 -0.20981371 0.2787557
0.4780073 0.9350714 0.06881677 0.34331396 -0.07925535 0.5873397 0.34460747 0.4005036
0.50397456 0.7326461 0.9681439 0.30368528 0.060833298 -0.38032126 0.33402523 0.1682586
0.98485327 0.27623948 0.585267 0.26287982 0.62577176 0.38114473 0.48039728 0.07424124
0.28377548 0.5526935 0.14957893 0.29736766 0.8228946 0.7222973 0.2602998 0.7038123
0.28141034 0.5789944 0.12746136 0.45084068 0.6975355 0.45331797 0.22849336 0.7273916
0.4302198 0.58325994 0.3161127 0.45678657 0.5361391 0.6616094 -0.102715574 0.3828128
0.40717864 0.48370042 0.19415857 0.31973782 0.7941905 0.8604336 0.69567525 0.3505537
0.39203846 0.54903084 0.45943746 0.28184405 0.80076796 0.41386437 0.13417986 0.352314
0.3159236 0.50744176 0.5824292 0.6185823 0.07545969 0.44990772 0.24149519 0.41913232
0.53824294 0.26778582 0.3807986 0.69965184 0.14002293 0.38338158 0.6069034 0.7514146
